model.pth (torch, 93972 bytes, 44 tensors)

conv1.weight f4 [16, 1, 3, 3]
0	0x3e72fb66	0.23728713
1	0xbe4855b4	-0.19563943
2	0xbe18c70f	-0.14919685
3	0x3e7497b2	0.23885992
4	0xbeabe3c4	-0.3357221
5	0x3e580807	0.21096812
6	0xbcca25a1	-0.024676146
7	0x3e17217e	0.1475887
8	0x3de9e9bb	0.11421534
9	0xbdd4a6bb	-0.10383364
10	0x3e45f095	0.19330056
11	0x3df95e95	0.12176243
12	0x3e466a23	0.19376425
13	0x3d143d6f	0.0361914
14	0x3ce30faa	0.02771743
15	0xbccc66cb	-0.02495136
16	0x3a18a15d	0.0005822385
17	0xbd403edb	-0.046934944
18	0x3ebf3d84	0.3735162
19	0x3d803dd6	0.06261794
20	0xbe6b2e9f	-0.22967003
21	0xbe5a0ccf	-0.21293949
22	0xbe20aaaf	-0.1569011
23	0xbdf47fbd	-0.11938427
24	0xbdd85bee	-0.10564409
25	0x3ccf69f7	0.025319083
26	0x3e92efb6	0.2869851
27	0x3db2adeb	0.087245785
28	0xbe823844	-0.25433552
29	0x3e7831dd	0.24237771
30	0xbc863c91	-0.016386302
31	0x3ea291fe	0.31752008
32	0x3ea681da	0.32520944
33	0xbebfa45d	-0.37430087
34	0xbecad498	-0.3961532
35	0xbe69e0f9	-0.22839727
36	0x3e8fc9e3	0.28083715
37	0xbd1f19a4	-0.038842812
38	0x3dd7bf2e	0.105345115
39	0xbe2f10b7	-0.1709622
40	0x3eb5f934	0.3554169
41	0xbe414cc0	-0.18876934
42	0x3e5ad167	0.21368943
43	0x3bdc47b2	0.006722414
44	0xbe990b6f	-0.29891536
45	0x3e95d11a	0.29261094
46	0xbd9ef51c	-0.07761595
47	0x3d087be4	0.033321276
48	0xbccf2365	-0.025285432
49	0xbd25958d	-0.040425826
50	0xbeb68731	-0.35650018
51	0xbcd54b6a	-0.026036937
52	0x3e5b7ae2	0.21433595
53	0x3d78cf31	0.060744468
54	0x3ea3f9ff	0.3202667
55	0x3e84d5ac	0.2594427
56	0xbb367beb	-0.0027844857
57	0xbe8d2bc4	-0.27572453
58	0x3e49967c	0.19686311
59	0x3da9293b	0.08259817
60	0xbea3a50c	-0.31961858
61	0x3e13088d	0.1435873
62	0x3dd460ca	0.103700235
63	0x3ed6934a	0.41909248
64	0xbdc36ccc	-0.09542236
65	0xbdd4c3ed	-0.103889324
66	0x3da2e5d4	0.079539925
67	0x3d192ba0	0.03739512
68	0xbea5a3e7	-0.3235161
69	0xbe420f13	-0.18951063
70	0x3c968780	0.018375158
71	0xbe4b1684	-0.19832808
72	0x3e0794e1	0.13240387
73	0x3d84af14	0.06478706
74	0x3e59a8fc	0.21255869
75	0x3d3fc8cf	0.046822365
76	0x3de75da3	0.11297157
77	0x3e4a6fe3	0.19769244
78	0xbebad2ea	-0.3648904
79	0x3d4c5acf	0.04989129
80	0xbe81e55b	-0.25370297
81	0xbed46cdd	-0.41489306
82	0xbe2fa361	-0.17152168
83	0xbdd1be99	-0.10241432
84	0x3e26c8a0	0.1628747
85	0xbe12085d	-0.14261003
86	0xbe6b74ad	-0.22993727
87	0x3e8f158e	0.27946132
88	0x3e30103e	0.17193696
89	0x3e765be0	0.24058485
90	0x3dd3cecf	0.1034218
91	0xbe99c5d5	-0.30033746
92	0xbb9efdd0	-0.004852034
93	0x3e4f99d6	0.20273528
94	0xbd9935fb	-0.07480999
95	0xbe655dca	-0.22399059
96	0x3e59e86a	0.21280065
97	0x3d1233ee	0.035694055
98	0xbea32c40	-0.31869698
99	0xbdd4684e	-0.10371457
100	0x3e702260	0.23450613
101	0xbe49d853	-0.19711427
102	0x3e62fd12	0.22166851
103	0x3e54b8d4	0.20773631
104	0xbe8c3e4c	-0.2739128
105	0xbe7befad	-0.24603148
106	0x3ec8e30b	0.3923572
107	0x3d823a6e	0.06358801
108	0x3e7881ab	0.24268214
109	0x3d81d1ce	0.06338845
110	0x3d357779	0.04430339
111	0x3e8f5e5f	0.28001687
112	0x3ea063ae	0.3132605
113	0xbe8462e8	-0.2585671
114	0x3d854282	0.06506826
115	0x3e72ac9d	0.23698659
116	0x3e3898d6	0.18027052
117	0x3e81b95b	0.25336727
118	0xbe76d090	-0.24102998
119	0xbe62f747	-0.22164641
120	0xbe95c2ed	-0.2925028
121	0x3cfdff26	0.031005453
122	0x3ec596bf	0.38591573
123	0xbd343de2	-0.04400433
124	0x3eaabffb	0.33349594
125	0xbe4f67ae	-0.20254394
126	0xbece9199	-0.40345457
127	0xbe05d12a	-0.13068071
128	0x3d9a18c5	0.07524256
129	0x3ebce28c	0.36891592
130	0xbe1f38f6	-0.15549073
131	0x3c136202	0.008995535
132	0x3e936c36	0.28793496
133	0x3e5de213	0.21668272
134	0x3e38175b	0.1797766
135	0x3ebde289	0.37086895
136	0x3ea326c8	0.31865525
137	0x3e22e32a	0.15906969
138	0xbe37f8a0	-0.17965937
139	0xbe8793e8	-0.2648003
140	0xbdc7da54	-0.0975844
141	0xbd99f4fc	-0.0751743
142	0xbe7921ad	-0.24329253
143	0x3dc5ef56	0.0966479

conv1.bias f4 [16]
0	0x3dd33a6f	0.1031388
1	0xbd926689	-0.07148463
2	0x3e537dab	0.20653407
3	0x3d6c1b3c	0.05764316
4	0x3e05c8ef	0.13064931
5	0x3ea11397	0.31460258
6	0xbe29787e	-0.1654987
7	0x3e8dddb0	0.27708197
8	0xbd9f023b	-0.07764097
9	0x3d394ff9	0.045242283
10	0xbe84ff07	-0.2597582
11	0xbe613013	-0.21990995
12	0xbe509b34	-0.20371705
13	0xbd2b6867	-0.041847613
14	0x3e269f3b	0.16271679
15	0xbe179f4d	-0.14806862

bn1.weight f4 [16]
0	0x3f7d3ad9	0.9891792
1	0x3f6deef1	0.9294272
2	0x3f7bf141	0.98415
3	0x3f865ec1	1.0497667
4	0x3f809fc2	1.0048754
5	0x3f6c9ac7	0.9242367
6	0x3f794b3c	0.97380424
7	0x3f7f6f55	0.99779254
8	0x3f80475a	1.0021775
9	0x3f890eb5	1.0707613
10	0x3f88f7b5	1.0700594
11	0x3f835a04	1.0261846
12	0x3f6d29a0	0.9264164
13	0x3f7645ef	0.9620046
14	0x3f7cb9eb	0.9872119
15	0x3f8a7904	1.0818181

bn1.bias f4 [16]
0	0x3cee4e38	0.029090032
1	0x3d58cfd7	0.052932587
2	0x3d252375	0.040317018
3	0xbd4eb265	-0.0504631
4	0x3d5c01f3	0.053712796
5	0xbbd14854	-0.006386796
6	0x3caad3db	0.020852974
7	0x3d2e629e	0.042574517
8	0x3d3b623d	0.045747984
9	0x3d4a133c	0.04933475
10	0x3d6db9ca	0.05803851
11	0x3cd5530e	0.02604058
12	0x3c89e972	0.016834948
13	0x3ca83552	0.020533238
14	0xbbe938c7	-0.007117364
15	0x3d3fac1f	0.046795007

bn1.running_mean f4 [16]
0	0x3e1111ba	0.14166918
1	0x3e002d2b	0.1251723
2	0x3e8ab431	0.270906
3	0x3e51e481	0.20497324
4	0x3e410d27	0.18852673
5	0x3eaf4294	0.34230483
6	0x3e227770	0.15865874
7	0x3ed0181d	0.40643397
8	0x3decaadd	0.11556027
9	0x3e4b738a	0.19868293
10	0x3d30ac93	0.04313333
11	0x3dc30e4c	0.09524211
12	0x3ea98027	0.33105585
13	0x3d61f2d7	0.05516323
14	0x3e8032ad	0.25038663
15	0x3dccefd9	0.10006685

bn1.running_var f4 [16]
0	0x3dafb3d3	0.085792206
1	0x3dbea99d	0.09309695
2	0x3d419bb3	0.047267627
3	0x3d97ef15	0.07418648
4	0x3e1ef7d0	0.1552422
5	0x3d6aa2fa	0.057284333
6	0x3e30a78b	0.17251413
7	0x3dbe0d59	0.092798896
8	0x3ddaa292	0.10675539
9	0x3dd59ad8	0.10429925
10	0x3cf8a1df	0.030350624
11	0x3d9ef0da	0.077607825
12	0x3f194889	0.59876305
13	0x3d0f12e0	0.03493011
14	0x3e9c0c90	0.30478334
15	0x3dd6cc99	0.10488243

conv2.weight f4 [32, 16, 3, 3]
0	0xbdb6fe5c	-0.08935234
1	0x3d97d6aa	0.07413991
2	0xbc578ae8	-0.013155676
3	0x3c2297a3	0.009923848
4	0xbca54b54	-0.02017752
5	0xbd3980a8	-0.04528871
6	0xbd2aa5c5	-0.041661996
7	0xbd3c0871	-0.045906488
8	0xbdb5edd1	-0.088832505
9	0xbd212887	-0.03934529
10	0xbc8affeb	-0.016967734
11	0x3d8d17ae	0.06889282
12	0xbc597a04	-0.01327372
13	0x3c9c6ba3	0.019094294
14	0x3daf02c9	0.08545453
15	0x3d8bf8fe	0.06834601
16	0x3da14455	0.078743614
17	0x3ca86582	0.020556215
18	0xbd1d7f44	-0.038451448
19	0x3cc658fb	0.024212351
20	0xbd9e6b7d	-0.077353455
21	0x3c9b6329	0.018968182
22	0xbd6c77dd	-0.057731498
23	0xbcc4b536	-0.02401219
24	0xbd3e4997	-0.0464569
25	0x3d41006d	0.047119547
26	0xbd0ab98d	-0.03386836
27	0xbd884a38	-0.06654781
28	0xbd060c28	-0.032726437
29	0xbdb3aabc	-0.087727994
30	0xbd498090	-0.049194872
31	0xbd37297c	-0.044717297
32	0xbdc3ffe6	-0.09570293
33	0xbd043f41	-0.032286886
34	0x3ce1a2a3	0.027543372
35	0xbe133255	-0.14374669
36	0x3d090cae	0.033459358
37	0x3d956b22	0.072958246
38	0x3ddae9c1	0.10689116
39	0xbd576fb6	-0.05259677
40	0x3d45d19a	0.048295595
41	0xbb25350c	-0.002520862
42	0x3d800b0b	0.06252106
43	0x3c14be35	0.009078552
44	0x3d160301	0.03662396
45	0x3b515191	0.0031939487
46	0x3bb0b5ac	0.0053927507
47	0x3bc9e248	0.006161008
48	0x3bc50cd8	0.006013494
49	0x3cfb26d4	0.030658163
50	0x3cee25a7	0.029070688
51	0x3b4e1bee	0.0031449753
52	0xbd93b003	-0.07211306
53	0x3d870189	0.0659209
54	0x3df7f8cd	0.12108002
55	0x3d98411d	0.074342944
56	0x3db1ee84	0.08688071
57	0xbd0548fd	-0.03254031
58	0xbc81f524	-0.015863962
59	0x3da44362	0.08020665
60	0xbdb079fa	-0.08617015
61	0x3d981f0a	0.07427795
62	0xbd7d3ec7	-0.061827447
63	0xbce5e59b	-0.028063586
64	0x3d924bcd	0.07143364
65	0xbd85f21f	-0.065403216
66	0xbae9dd16	-0.0017842378
67	0x3d89c721	0.06727434
68	0x3db5deca	0.08880384
69	0x3d89cd61	0.06728626
70	0xbc39b325	-0.011334215
71	0xbcf46d7e	-0.029837366
72	0x3d55a97e	0.052163593
73	0xbd90b355	-0.07065455
74	0xbcb089ce	-0.021550085
75	0xbd0a80af	-0.03381413
76	0xbda0a3fc	-0.078437775
77	0x3d02a15d	0.03189217
78	0x3ce49ca3	0.027906721
79	0xbda20ace	-0.07912217
80	0xbe00e9c3	-0.12589173
81	0xbdbe92bd	-0.09305332
82	0xbcfc51a0	-0.03080064
83	0xbd8e44cb	-0.06946715
84	0xbde8d0dd	-0.113679625
85	0xbd5a879b	-0.05335198
86	0xbd99bffc	-0.07507321
87	0xbda8d3c1	-0.08243514
88	0xbdc1ed39	-0.09469075
89	0x3dd996c3	0.10624459
90	0x3e07f6b4	0.13277704
91	0x3d516983	0.051126014
92	0x3d3dc637	0.04633161
93	0x3daf3bb6	0.08556311
94	0x3d9c04cd	0.07618103
95	0x3ca75201	0.020424845
96	0x3d903a30	0.070423484
97	0x3d604934	0.054757312
98	0x3bdef260	0.0068037957
99	0x3c4a4ef8	0.012347929
100	0x3dbf2d55	0.09334818
101	0x3df239d0	0.11827433
102	0xbd060358	-0.032718033
103	0x3d77e0ea	0.06051723
104	0x3d4a4875	0.049385507
105	0xbd01d07a	-0.03169296
106	0x3c58edfe	0.0132403355
107	0xbd1fa20f	-0.03897291
108	0x3d9f337b	0.07773491
109	0xbcf605cd	-0.030032063
110	0x3d25e88d	0.04050498
111	0x3b9ade11	0.0047261794
112	0x3ca9154e	0.020640042
113	0x3dc219a6	0.09477548
114	0xbd81786d	-0.063217975
115	0xbc64f7e9	-0.013975122
116	0xbd5d65e6	-0.054052256
117	0x3967e46a	0.00022114968
118	0xbd1baad5	-0.038004715
119	0xbcf0a2ef	-0.029374568
120	0xbc8ba606	-0.01704694
121	0x3cc812f4	0.0244231
122	0xbbf328b1	-0.0074206223
123	0x3d23fece	0.040037923
124	0xbc30d894	-0.010793824
125	0xbca4f881	-0.020138027
126	0xbde0846b	-0.10962757
127	0x3db3d058	0.08779973
128	0xbc8ff9ff	-0.017575262
129	0xbc59bb35	-0.013289263
130	0x3b452a09	0.003008487
131	0xbdadf314	-0.08493629
132	0x3d78a9d9	0.060708854
133	0x3d2e43f0	0.04254526
134	0xbc545965	-0.012960766
135	0xbdf14044	-0.11779836
136	0xbdc97560	-0.09836841
137	0xbc659e4d	-0.014014793
138	0xbd9349f6	-0.07191841
139	0xbdcd1f52	-0.100157395
140	0xbda242e1	-0.079229124
141	0xbddabd66	-0.10680656
142	0xbd31a7b5	-0.04337283
143	0xbcc4c5aa	-0.024020035
144	0xbd2ea190	-0.042634547
145	0xbd58bbfa	-0.052913643
146	0xbdfcfe2f	-0.12353169
147	0x3d12adeb	0.035810392
148	0xbd2e8dd0	-0.04261571
149	0x3d4f8a6f	0.05066913
150	0xbd03e7b9	-0.03220341
151	0xbdd1ab35	-0.10237733
152	0xbdd20fe9	-0.10256941
153	0xbd9d5e92	-0.076840535
154	0x3cffba07	0.031216634
155	0xbd9793a1	-0.07401205
156	0xbd803a77	-0.06261151
157	0x3cb814b3	0.022470808
158	0x3c93efda	0.018058706
159	0x3bc6fdcc	0.0060727354
160	0xbd3c1a43	-0.045923483
161	0xbd1dfcd3	-0.03857119
162	0xbd464c60	-0.04841268
163	0xbda832b0	-0.08212793
164	0x3be7cb90	0.007073827
165	0xbd3fcca7	-0.04682603
166	0xbd8c6058	-0.068543136
167	0x3d92b0a2	0.07162596
168	0xbda5a721	-0.08088518
169	0xbcda1d3a	-0.026625264
170	0x3d4792f2	0.048724122
171	0x3db120f8	0.086488664
172	0x3df365ca	0.11884649
173	0xbdc5f15b	-0.096651755
174	0x3cdd6c83	0.027029281
175	0xbd52166e	-0.051290922
176	0xbda9f5ec	-0.08298859
177	0xbd8f9857	-0.070114784
178	0xbd1c26d9	-0.038122986
179	0x3b7ca86a	0.003855253
180	0xbdbdc7e7	-0.09266644
181	0xbd9fe00e	-0.07806407
182	0xbd5a3d8f	-0.053281363
183	0x3d04470e	0.032294326
184	0xbd01ab2e	-0.03165739
185	0xbd2aacde	-0.041668765
186	0xbd75045c	-0.05981861
187	0xbd2d42c4	-0.0423
188	0xbdb48827	-0.088150315
189	0xbd5f2370	-0.054477155
190	0x3ce81c29	0.02833374
191	0x3c237a02	0.009977819
192	0xbd97fb60	-0.07420993
193	0xbd86ab49	-0.06575639
194	0x3cce0c89	0.025152462
195	0x3d9d8363	0.07691076
196	0x3d622050	0.055206597
197	0xbc334c25	-0.010943447
198	0x3caed656	0.021342438
199	0x3c6467a5	0.013940726
200	0xbd7d7e99	-0.06188831
201	0xbdb69724	-0.089155465
202	0x3d5f1698	0.054464906
203	0xbd39901b	-0.045303445
204	0x3bfdb133	0.007742071
205	0xbbd8a4d0	-0.006611444
206	0xbdf8305b	-0.12118598
207	0xbd9025dc	-0.07038471
208	0x3c9070b4	0.017631866
209	0x3c83c1fd	0.016083712
210	0xbe0a3e80	-0.13500404
211	0x3a39f09b	0.0007093043
212	0x3bdade62	0.006679342
213	0x3b76ff4d	0.0037688792
214	0x3ccbeedf	0.024894176
215	0x3d00c821	0.031440858
216	0xbd0ff172	-0.03514237
217	0x3e1c4bc7	0.15263282
218	0x3d6c1fc4	0.05764748
219	0x3c23239c	0.00995722
220	0xbc55981e	-0.013036756
221	0xbdecfd62	-0.115717664
222	0x3d2a8ff9	0.04164121
223	0xbd6e83ed	-0.058231283
224	0xbdd3c8c9	-0.10341031
225	0x3dc74808	0.09730536
226	0x3d815648	0.06315285
227	0x3ca49602	0.02009106
228	0x3da7e371	0.08197678
229	0x3c129fa5	0.008949195
230	0xbb4faff1	-0.0031690563
231	0x3d25817d	0.040406693
232	0xbca844d5	-0.020540634
233	0xbdf614cb	-0.12015685
234	0x3d9d194f	0.07670843
235	0x3d8a2077	0.067444734
236	0x3d515539	0.051106665
237	0x3d9c861b	0.07642766
238	0x3dd0e147	0.10199218
239	0x3c190507	0.0093395775
240	0xbcd6f326	-0.02623899
241	0x3e0a017b	0.13477127
242	0x3c0a675c	0.008447494
243	0xbda526c5	-0.08064035
244	0xbc5c5633	-0.013448286
245	0xbd6ca731	-0.057776634
246	0xbdc9b264	-0.098484784
247	0xbdb9df4f	-0.09075796
248	0x3b617410	0.0034401454
249	0xbce1eafb	-0.027577868
250	0xbd145143	-0.03621031
251	0xbc9e0167	-0.019287778
252	0x3b9dfaf1	0.0048211743
253	0xbda86218	-0.08221835
254	0x3cb1ce45	0.021704802
255	0xbae1be20	-0.0017222799

conv2.bias f4 [32]
0	0x3d7c41f0	0.06158632
1	0xbcc9eeee	-0.024650063
2	0x3cb94e86	0.02262045
3	0x3c9678ca	0.018368144
4	0x3d9b4be0	0.075828314
5	0x3d42442f	0.047428306
6	0xbcdb1773	-0.02674458
7	0xbc95d52c	-0.018290125
8	0xbd90cb5e	-0.07070039
9	0x3cd7d35a	0.026345897
10	0xbc85110d	-0.016243482
11	0xbe1fd143	-0.15607171
12	0xbd71014f	-0.05883914
13	0xbd6f1cfc	-0.05837725
14	0x3d32bed4	0.04363902
15	0x3d57dffc	0.052703843
16	0xbd460b11	-0.048350397
17	0xbd2374a5	-0.039906163
18	0xbd8513ac	-0.06497893
19	0xbdbdc864	-0.09266737
20	0x3d4e4593	0.05035932
21	0x3d3ef345	0.04661872
22	0xbd707932	-0.05870933
23	0x3d6be7f7	0.057594266
24	0x3c9e2cad	0.019308412
25	0xbd425443	-0.04744364
26	0x3c8e47bd	0.017368192
27	0xbc901933	-0.01759014
28	0xbcad85bc	-0.021181934
29	0xbbbaef40	-0.0057047904
30	0xbd78e35c	-0.0607637
31	0x3c655aef	0.013998731

bn2.weight f4 [32]
0	0x3f81b237	1.0132512
1	0x3f7f667c	0.99765754
2	0x3f83dccd	1.0301758
3	0x3f7770e2	0.9665662
4	0x3f7eb8ca	0.99500716
5	0x3f7d7463	0.9900572
6	0x3f80ef4a	1.0073025
7	0x3f824bb7	1.0179356
8	0x3f7b006f	0.98047537
9	0x3f7ad250	0.9797716
10	0x3f835461	1.0260125
11	0x3f7a8127	0.9785332
12	0x3f7af762	0.98033726
13	0x3f7efda2	0.9960576
14	0x3f80476a	1.0021794
15	0x3f7b5087	0.9816975
16	0x3f831471	1.0240613
17	0x3f791916	0.97303903
18	0x3f824652	1.017771
19	0x3f815062	1.0102656
20	0x3f7f8d58	0.9982505
21	0x3f7e989c	0.99451613
22	0x3f80ade9	1.0053073
23	0x3f824434	1.0177064
24	0x3f80072f	1.0002192
25	0x3f7dc6bf	0.9913139
26	0x3f7fac11	0.9987193
27	0x3f81969b	1.0124086
28	0x3f805931	1.0027219
29	0x3f76b43e	0.9636878
30	0x3f7fcad8	0.9991889
31	0x3f806454	1.0030618

bn2.bias f4 [32]
0	0xbd0b15dc	-0.033956394
1	0xbba5f5a1	-0.0050646816
2	0xbcfd6451	-0.030931624
3	0xbcfcfd13	-0.030882394
4	0xbbaf66ed	-0.005352846
5	0xbd491dc9	-0.04910067
6	0xbbac56ee	-0.0052593863
7	0xbcbe26f8	-0.023211941
8	0xbcc9a331	-0.024613949
9	0xbc8c2bb5	-0.017110685
10	0x3b874b91	0.0041288813
11	0xbb8622a7	-0.0040934864
12	0x3bbc4ec1	0.005746693
13	0xbd4a325a	-0.049364425
14	0xbc6b6347	-0.014366931
15	0xbc6bb8f5	-0.014387359
16	0xbccfa5f1	-0.025347682
17	0xbc4aed90	-0.012385741
18	0xbc0272ea	-0.007961968
19	0x3b08f123	0.0020895682
20	0xbd4745cc	-0.048650548
21	0xbd012160	-0.03152597
22	0x3adfbc4b	0.0017069665
23	0xbd32e7d6	-0.043678127
24	0x3bd17efe	0.0063933125
25	0xbc917ca0	-0.017759621
26	0x3b607284	0.0034247944
27	0xbd32be64	-0.043638602
28	0xbd402391	-0.04690892
29	0xbc77049f	-0.015076785
30	0xbd657406	-0.05601885
31	0xb9e236d5	-0.00043146932

bn2.running_mean f4 [32]
0	0x3eaae22f	0.3337569
1	0x3ef8410c	0.48487127
2	0x3eb37073	0.3504673
3	0x3e5f0d34	0.2178238
4	0x3eeeee85	0.4666635
5	0x3ea12f5d	0.31481448
6	0x3ee11ffc	0.43969715
7	0x3ef72d1b	0.482766
8	0x3e546ac8	0.20743859
9	0x3e520ad6	0.20511946
10	0x3e81e2f9	0.2536848
11	0x3dfd9b28	0.12383109
12	0x3e2a590b	0.1663553
13	0x3e44a794	0.19204551
14	0x3eb94b2b	0.3619016
15	0x3ea134d0	0.31485605
16	0x3ec16d60	0.3777876
17	0x3ea588de	0.32330984
18	0x3e60356e	0.21895382
19	0x3ed63567	0.41837618
20	0x3ec28f94	0.38000166
21	0x3eb861bf	0.36012074
22	0x3f0d8d15	0.552934
23	0x3ef4d880	0.47821426
24	0x3ea2b4dd	0.31778613
25	0x3e9d3172	0.30701786
26	0x3e973899	0.29535368
27	0x3e86c812	0.26324517
28	0x3e976778	0.29571128
29	0x3e5343dc	0.20631355
30	0x3e670d24	0.22563607
31	0x3e7e53e7	0.24836694

bn2.running_var f4 [32]
0	0x3ede3323	0.4339839
1	0x3e1f42c9	0.1555282
2	0x3da6c57e	0.081431374
3	0x3ea80ece	0.32823795
4	0x3e406bd6	0.18791136
5	0x3e062efb	0.13103859
6	0x3e39e06f	0.18152021
7	0x3e62b25f	0.22138356
8	0x3e982314	0.29714262
9	0x3e85ab93	0.26107463
10	0x3e839cf5	0.25705686
11	0x3e284f0a	0.16436401
12	0x3ebca11d	0.3684167
13	0x3d78389d	0.060600866
14	0x3e8787bd	0.26470748
15	0x3e2bd95e	0.16782138
16	0x3e1f407c	0.15551943
17	0x3f3c818f	0.7363519
18	0x3ea0175b	0.3126782
19	0x3e9c3fd5	0.3051745
20	0x3e4b2422	0.19838002
21	0x3e0baaee	0.13639423
22	0x3e2cbde6	0.16869316
23	0x3e413e46	0.18871412
24	0x3f03d129	0.5149103
25	0x3de32dfe	0.11092757
26	0x3e4d7ff0	0.20068336
27	0x3e8093f8	0.2511289
28	0x3e36aa35	0.17838366
29	0x3e4e4b1b	0.20145838
30	0x3ed69135	0.4190766
31	0x3ec153a1	0.37759116

transition1.weight f4 [16, 32, 1, 1]
0	0x3e03fc9a	0.12889329
1	0x3d981be7	0.07427197
2	0xbcb8e8eb	-0.022572001
3	0xbdf69e6b	-0.120419346
4	0xbdbc4d83	-0.09194472
5	0x3c896377	0.016771061
6	0x3d8a472f	0.067518584
7	0x3e2f0c0d	0.17094441
8	0x3e17edb7	0.14836775
9	0x3d94d18e	0.07266532
10	0x3c688f24	0.014194284
11	0xbe34ddf7	-0.17662798
12	0xbcf62cd6	-0.030050676
13	0xbd9f1cad	-0.07769141
14	0xbe2c582c	-0.1683051
15	0xbda60ced	-0.08107934
16	0x3c23205d	0.0099564465
17	0xbdd8b9c4	-0.10582307
18	0x3ca4944b	0.020090243
19	0xbe1bb561	-0.1520591
20	0x3d9857d6	0.074386284
21	0xbd9f5ab8	-0.07780975
22	0x3df0ad95	0.11751858
23	0xbc7a4898	-0.015276097
24	0xbe267e24	-0.16259056
25	0xbd02d5c3	-0.03194214
26	0xbe315bf6	-0.17320237
27	0x3da8242d	0.08210025
28	0x3c7776bb	0.015103991
29	0x3d5a041e	0.053226583
30	0x3e233bd5	0.15940793
31	0x3d70361c	0.058645353
32	0x3e3bbc6e	0.18333599
33	0x3e02b657	0.1276487
34	0xbd84476e	-0.06458937
35	0x3b8b246c	0.004246285
36	0xbddcf12f	-0.107881896
37	0x3d00ac2b	0.031414192
38	0x3ce2ad5e	0.027670559
39	0x3ddd1b52	0.107962266
40	0x3d7daac8	0.061930448
41	0x3afdb605	0.0019356614
42	0xbd860b15	-0.065450825
43	0x3d98c164	0.07458761
44	0x3d40575b	0.04695831
45	0xbd7571b8	-0.059922904
46	0xbdf2eb40	-0.118612766
47	0xbe199ace	-0.1500046
48	0x3ddc21bb	0.10748621
49	0x3d78fba9	0.060786877
50	0x3c9b1788	0.018932119
51	0x3de8e7e5	0.11372355
52	0xbe0cee4d	-0.1376278
53	0x3e6e8364	0.23292309
54	0x3e1a53d3	0.15071039
55	0x3da4f5fd	0.08054731
56	0x3ce01bf2	0.027357075
57	0xbe7487df	-0.23879956
58	0x3c56dd07	0.01311422
59	0xbc74ee02	-0.014949324
60	0xbc889ce3	-0.016676372
61	0x3deb91ad	0.11502395
62	0xbd8d0bc2	-0.06887008
63	0x3e240bf3	0.16020183
64	0x3cfef4cc	0.031122588
65	0xbe44c15b	-0.19214384
66	0x38a0eb83	7.673262e-05
67	0x3cf7c515	0.030245343
68	0x3d9c10c9	0.07620389
69	0xbd785665	-0.060629267
70	0xbdebd3f9	-0.1151504
71	0xbd14dd2a	-0.03634373
72	0xbe310935	-0.17288668
73	0xbdafaaac	-0.08577475
74	0xbd944c58	-0.07241124
75	0x3e0a09a7	0.13480245
76	0xbddce9c3	-0.10786774
77	0x3bdf575b	0.0068158335
78	0x3de06ccc	0.10958251
79	0xbca12e98	-0.019675538
80	0x3e12f718	0.14352071
81	0xbd9d1390	-0.07669747
82	0xbd62fc57	-0.05541643
83	0x3c0dcefc	0.008655306
84	0xbdc3a870	-0.09553611
85	0x3dd7dee3	0.10540559
86	0xbd06f6a6	-0.032950066
87	0xbe7f29fc	-0.2491836
88	0x3d84bd30	0.06481397
89	0xbce56c6c	-0.028005801
90	0xbdceaa85	-0.10091118
91	0x3d43d8c7	0.047814157
92	0x3d128f43	0.035781156
93	0xbd9476bd	-0.0724921
94	0xbaa38bc9	-0.0012477572
95	0x3d87ca9a	0.0663044
96	0xbd10d572	-0.035359807
97	0x3dd36883	0.103226684
98	0xbd37348a	-0.04472784
99	0x3d591ac3	0.053004038
100	0xbd2e6824	-0.042579785
101	0x3cfcdb6a	0.030866344
102	0x3db761d9	0.0895421
103	0x3e2ae085	0.1668721
104	0xbe109f39	-0.14123239
105	0xbd95e17e	-0.073184
106	0x3d855dd7	0.06512039
107	0xbd9fc870	-0.07801902
108	0xbe395148	-0.18097413
109	0x3e033f9e	0.12817237
110	0x3c94f713	0.01818422
111	0x3e0a1b26	0.13486919
112	0x3d984292	0.07434572
113	0xbda619de	-0.081104025
114	0xbdc82788	-0.09773165
115	0xbd779587	-0.060445335
116	0x3e20d615	0.15706666
117	0x3bf9cbe4	0.0076231826
118	0x3e18b5b5	0.14913066
119	0x3e0ebb4c	0.13938636
120	0x3c7a9d01	0.015296222
121	0x3e21d3c0	0.15803432
122	0xbcef9fb8	-0.029250965
123	0x3df69d37	0.12041705
124	0x3e334d52	0.17509964
125	0x3c3eea60	0.011652559
126	0x3e0f5417	0.13996921
127	0xbd81ca96	-0.06337468
128	0x3e33a495	0.17543252
129	0x3da18ee2	0.07888581
130	0xbe1e6aa4	-0.15470368
131	0xbe2d92ec	-0.16950577
132	0x3cc334d8	0.023828909
133	0x3cf989b8	0.030461177
134	0x3dfa98b8	0.1223616
135	0x3c9c5cbc	0.019087188
136	0xbd206c01	-0.0391655
137	0xbe5bebfb	-0.21476738
138	0xbe53d5c2	-0.20687011
139	0xbe635ea5	-0.22204073
140	0xbdbc48b7	-0.09193557
141	0x3d4e09d4	0.05030234
142	0x3e021898	0.12704694
143	0x3d91736e	0.071020946
144	0xbd93bc9d	-0.072137095
145	0x3dbff755	0.09373347
146	0xbe27f81c	-0.1640324
147	0x3e1730fe	0.14764783
148	0xbda57e31	-0.0808071
149	0xbced4971	-0.028965684
150	0x3e108cb4	0.14116174
151	0x3e15f962	0.14645913
152	0xbcb28395	-0.021791259
153	0x3dc0e69a	0.09418984
154	0xbde2055e	-0.1103618
155	0xbc9f4480	-0.019441843
156	0xbdeae251	-0.11468948
157	0xbe17b59c	-0.14815372
158	0xbdf40607	-0.11915212
159	0xbe4188d7	-0.18899857
160	0x3dbb6cee	0.09151636
161	0xbdebc74b	-0.115126215
162	0x3e9162c9	0.2839568
163	0xbd0e001a	-0.034668066
164	0x3d9dc913	0.077043675
165	0x3dbde807	0.09272771
166	0x3d088db1	0.033338252
167	0xbe1d0986	-0.15335664
168	0xbdfb2a85	-0.12263969
169	0xbc845465	-0.016153524
170	0xbd060dd6	-0.03272804
171	0x3d1a7ecb	0.037718575
172	0xbdda747d	-0.106667496
173	0x3dd72dda	0.10506792
174	0xbe0b42e7	-0.1359974
175	0x3db01aea	0.085988835
176	0x3d067b5b	0.032832485
177	0xbe337fc9	-0.17529215
178	0xbe7aa3fb	-0.24476616
179	0xbdcf3872	-0.10118188
180	0x3bd6e13a	0.006557611
181	0x3da036d1	0.078229554
182	0xbe105fb4	-0.14099008
183	0xbd8660d1	-0.06561435
184	0xbe2516ed	-0.16122027
185	0xbe26b3ea	-0.1627957
186	0xbd9ad3b3	-0.0755991
187	0xbdef07f0	-0.11671436
188	0x3c75c7d1	0.015001253
189	0x3dab26c1	0.08357001
190	0xbdd5f9e7	-0.10448056
191	0xbd156e81	-0.036482338
192	0xbdd208a5	-0.10255555
193	0xbc472896	-0.012155673
194	0xbcd26bec	-0.025686227
195	0xbd791e16	-0.060819708
196	0x3e488e3f	0.19585513
197	0x3c31b650	0.010846689
198	0x3e06605c	0.13122696
199	0x3e34e07a	0.17663756
200	0x3ccb8abc	0.024846427
201	0x3c9f1970	0.01942131
202	0x3d32954c	0.04359941
203	0x3e248dff	0.16069792
204	0xbda12a79	-0.07869429
205	0xbca7dc4a	-0.020490784
206	0x3d2b3c68	0.041805655
207	0x3c3f67d0	0.011682466
208	0xbc13469b	-0.008989002
209	0x3dccac33	0.09993782
210	0x3e1953da	0.14973393
211	0xbe55c9c6	-0.20877752
212	0xbe15f483	-0.14644055
213	0xbd8203d3	-0.06348386
214	0x3d99244e	0.07477628
215	0x3e121121	0.14264347
216	0x3db9ad37	0.09066241
217	0x3e0248e8	0.12723124
218	0x3dad96ce	0.08476029
219	0x3c01b40a	0.00791646
220	0x3e7271d3	0.23676233
221	0xbc5a5729	-0.013326445
222	0x3cc9742e	0.024591532
223	0xbdd7fb8b	-0.10546025
224	0x3e3f1062	0.18658593
225	0xbe465b87	-0.19370852
226	0xbcb44f24	-0.022010393
227	0x3dbfdda4	0.093684465
228	0xbe5558bd	-0.20834632
229	0x3db86c4e	0.090050325
230	0xbdb3130f	-0.087438695
231	0x3d5f30e2	0.054489978
232	0x3dbf9836	0.09355204
233	0x3de019a5	0.10942391
234	0x3e3cbbce	0.18431017
235	0xbd034be8	-0.03205481
236	0xbd01a1ea	-0.031648554
237	0x3dc31582	0.09525587
238	0x3ddc2538	0.107492864
239	0x3d35a16c	0.044343397
240	0xbd88a0a6	-0.06671266
241	0x3dcb734b	0.099341
242	0xbdcd44be	-0.10022877
243	0xbe431fea	-0.19055143
244	0xbdb92cde	-0.09041761
245	0x3d474d1c	0.04865752
246	0xbdc6b3e6	-0.09702282
247	0xbdbeeb24	-0.09322193
248	0xbddb700e	-0.10714732
249	0x3e07e6f7	0.132717
250	0x3e19d3eb	0.15022247
251	0xbd8815d8	-0.06644791
252	0xbc506a18	-0.012720607
253	0x3cc62221	0.024186196
254	0xbd8f5af3	-0.06999769
255	0x3e43f427	0.19136105

transition1.bias f4 [16]
0	0x3d8bed64	0.06832388
1	0x3e12d97e	0.14340779
2	0xbe24bc76	-0.16087517
3	0xbe2aaf91	-0.16668536
4	0x3e189c1f	0.14903305
5	0x3e074355	0.13209279
6	0x3cd8331f	0.026391564
7	0x3de94ac3	0.11391213
8	0x3e3c952d	0.18416281
9	0x3e119905	0.14218529
10	0xbdcee358	-0.10101956
11	0xbdc2d8de	-0.095140204
12	0xbd9d2614	-0.076732785
13	0xbd9ca0e1	-0.07647873
14	0x3e84ffa0	0.25976276
15	0x3d635573	0.055501413

conv3.weight f4 [16, 16, 3, 3]
0	0xbd0caa81	-0.034342293
1	0x3d8cc7fa	0.0687408
2	0x3cf0e84d	0.029407645
3	0xbcbc4e4f	-0.02298656
4	0xbd9a4925	-0.075334825
5	0x3ce27ce7	0.027647449
6	0xbd4575da	-0.048208095
7	0x3c928ae0	0.017888486
8	0x3a5621ae	0.0008168471
9	0xbd8ea0ba	-0.0696425
10	0xbc724aaa	-0.014788309
11	0x3c23d9b9	0.01000064
12	0xbd999d2a	-0.0750068
13	0xbc1627e0	-0.00916478
14	0x3cbb5781	0.022868874
15	0xbdb0582a	-0.08610566
16	0x3dd47c35	0.10375253
17	0x3da311c7	0.07962375
18	0x3d406908	0.046975166
19	0x3cb3c3e0	0.021943986
20	0xbd7e9030	-0.062149227
21	0xbd4ea151	-0.050446812
22	0xbd936298	-0.0719654
23	0xbc031c55	-0.00800236
24	0xbdb7672d	-0.08955226
25	0xbd8a88a3	-0.06764343
26	0xbd9ab408	-0.075538695
27	0xbae7a2ef	-0.0017672459
28	0xbd14bc01	-0.036312107
29	0x3d2aaeac	0.041670486
30	0xbdc2a252	-0.095036164
31	0xbe0ddf3d	-0.1385469
32	0xbd8e0247	-0.06934028
33	0x3dd4b679	0.103863664
34	0x3d3092ec	0.043108866
35	0xbd4d8d4b	-0.050183576
36	0xbe116527	-0.14198743
37	0xbc84e3e0	-0.01622194
38	0x3b8af0e4	0.004240142
39	0xbbfe6b6b	-0.00776427
40	0xbc19c768	-0.009385921
41	0x3c7e4352	0.01551898
42	0xbd4ccac7	-0.04999807
43	0xbd006bec	-0.031352922
44	0xbcc04a7f	-0.023473023
45	0x3dc6996c	0.09697232
46	0x3dcdbce3	0.10045793
47	0xbd9592c0	-0.07303381
48	0xbd7e1771	-0.062034074
49	0x3d6de09b	0.05807553
50	0x3e000c02	0.1250458
51	0xbdcaccfe	-0.099023804
52	0x3ceca126	0.028885435
53	0xbc0bdb66	-0.008536195
54	0x3c1565ff	0.009118556
55	0x3df13ed1	0.117795594
56	0x3db9862a	0.09058793
57	0xbc64987b	-0.01395237
58	0x3d42c58d	0.04755168
59	0x3d8ad224	0.067783624
60	0x3e039296	0.12848887
61	0xbce6495f	-0.028111158
62	0x3d007e9b	0.03137074
63	0x3d8d120f	0.0688821
64	0x3d006084	0.031342044
65	0xbe2a8b83	-0.16654782
66	0x3dff05ae	0.12452255
67	0x3d08d30b	0.03340439
68	0x3c4e5b5c	0.012595024
69	0xbb88963b	-0.0041682995
70	0x3cb52c9a	0.022115994
71	0x3dcdbde0	0.100459814
72	0xbcc011d2	-0.023445997
73	0x3daab003	0.08334353
74	0x3c39a5eb	0.011331062
75	0x3c53d0ec	0.012928229
76	0x3c97415e	0.018463787
77	0x3d124715	0.03571232
78	0x3d09b0d3	0.0336159
79	0x3db5ab2f	0.08870541
80	0x3947b97d	0.00019047219
81	0x3ca83af2	0.02053592
82	0xbc57f950	-0.013181999
83	0xbdb87861	-0.090073355
84	0x3cb2296c	0.021748267
85	0x3c15be01	0.009139539
86	0x3be0b25a	0.0068571987
87	0x3e0c437b	0.13697617
88	0x3dcb1f05	0.09918026
89	0xbd0598b9	-0.03261635
90	0xbe22bcbc	-0.15892309
91	0x3d144499	0.036198232
92	0xbcfa50ce	-0.030556109
93	0xbddd4dee	-0.108058795
94	0xbd7ebe5e	-0.062193267
95	0xbba761dd	-0.0051081018
96	0xbdd8cb57	-0.10585659
97	0xbd149498	-0.036274523
98	0x3c25e0c3	0.010124388
99	0x3da719ac	0.081591934
100	0x3b53c724	0.0032314742
101	0x3c158272	0.009125339
102	0xbbdac3d0	-0.0066761747
103	0xbdbbe387	-0.09174257
104	0x3c2ae39f	0.010430246
105	0xbcf512a5	-0.029916117
106	0xbd86e9df	-0.06587576
107	0xbcc87a33	-0.024472332
108	0x3bd4daef	0.0064958255
109	0xbbdae88a	-0.006680553
110	0x3dd9b1f0	0.10629642
111	0x3d25f4a0	0.040516496
112	0x3a10b522	0.0005520155
113	0xbb5286cb	-0.00321238
114	0xbc8f2ef9	-0.017478453
115	0x3cde3b3e	0.027127858
116	0xbcccf500	-0.025019169
117	0x3dc9a0e6	0.09845142
118	0x3d94937c	0.07254693
119	0xbc951332	-0.01819763
120	0xbc8c9109	-0.017159002
121	0x3dadfba0	0.08495259
122	0xbd1d0a5f	-0.03833997
123	0x3dd4238a	0.10358341
124	0x3d1358d8	0.0359734
125	0xbd1f8b4c	-0.038951203
126	0x3cfaefeb	0.03063198
127	0x3d86d669	0.06583864
128	0x3de8069e	0.11329387
129	0xbc6ba23b	-0.0143819405
130	0x3d89c689	0.06727321
131	0x3cbea2d7	0.023271007
132	0x3d0193bb	0.031635027
133	0x3cdfbb6f	0.027311055
134	0x3d97ec22	0.07418086
135	0x3d43c8f8	0.04779908
136	0x3db3c23e	0.08777283
137	0xbd216419	-0.0394021
138	0x3e100f9e	0.14068457
139	0x3d126efa	0.035750367
140	0x3d66cd36	0.05634805
141	0x3d918b92	0.07106699
142	0xbd3d521f	-0.046220895
143	0x3d769fb0	0.060210884
144	0x3a0a5b1c	0.00052778586
145	0x3d5b7683	0.05357982
146	0xbd8c859e	-0.06861423
147	0x3da20052	0.07910217
148	0x3c8aca26	0.016942095
149	0x3c6105d2	0.013734298
150	0x3c7af69c	0.015317585
151	0xbcaa5468	-0.020792201
152	0xbcb75f3f	-0.022384284
153	0xbd9b0818	-0.07569903
154	0xbd81bf05	-0.06335262
155	0xbd4f36c6	-0.050589345
156	0x3d26ee26	0.04075446
157	0xbcc85c87	-0.024458183
158	0x3c9e0da4	0.019293614
159	0xbd06502d	-0.032791305
160	0xbdb449aa	-0.08803113
161	0x3d11cb07	0.035594013
162	0x3cf050f2	0.029335473
163	0x3d674db2	0.05647058
164	0x3dd5db52	0.10442223
165	0xbdad4c19	-0.0846178
166	0x3ce5f47e	0.028070685
167	0x3da9fd2b	0.08300241
168	0xbba1f5a3	-0.0049426123
169	0x3d802020	0.06256127
170	0x3d181c58	0.037136406
171	0x3d05b6e9	0.03264514
172	0xbd1a2ba9	-0.037639294
173	0x3cd4d4f7	0.025980456
174	0x3dddaab7	0.10823577
175	0xbc02bad3	-0.007979113
176	0x3bd3b685	0.006460967
177	0xbc5d2908	-0.013498552
178	0xbdf8bc8d	-0.12145338
179	0xbe10e8d0	-0.14151311
180	0x3df23b06	0.11827664
181	0x3ddab046	0.10678153
182	0x3db14a29	0.08656723
183	0xbdc165fb	-0.09443279
184	0xbb63ff59	-0.003478965
185	0x3d198e36	0.03748914
186	0xbe6b2532	-0.22963408
187	0xbe1f7bcc	-0.15574569
188	0xbe0dd957	-0.1385244
189	0xbd172187	-0.03689721
190	0xbd142542	-0.036168344
191	0x3d9b2d5b	0.0757701
192	0x3d63005c	0.055420265
193	0x3e319d76	0.17345223
194	0x3d3e9eea	0.04653827
195	0xbdadd37b	-0.08487602
196	0x3c46fbf9	0.012145036
197	0x3df68e7d	0.12038896
198	0xbd7a1e68	-0.061064154
199	0x3cb4b64f	0.022059588
200	0xbd70875c	-0.05872284
201	0x3d18a8ed	0.037270475
202	0x3cc2509f	0.023720084
203	0xbd73052b	-0.0593311
204	0x3db007e2	0.085952535
205	0x3d8f433d	0.069952466
206	0x3cae8f9a	0.021308709
207	0xbdc44ca5	-0.09584931
208	0xbda7f836	-0.08201639
209	0xbda37170	-0.07980621
210	0xbdfa9a01	-0.12236405
211	0xbd8aca56	-0.06776874
212	0xbdfe1e31	-0.12408102
213	0x3e07783f	0.13229464
214	0x3de25fd6	0.110534355
215	0xbcbc277e	-0.02296805
216	0xbbfcf286	-0.0077193407
217	0xbccdd770	-0.025127143
218	0x3da5fc6f	0.081047885
219	0xbda80bfb	-0.0820541
220	0xbda6654f	-0.08124792
221	0xbd07706d	-0.033066202
222	0xbd61cc22	-0.055126317
223	0xbdb02f3e	-0.08602761
224	0xbdc7dfe7	-0.09759503
225	0xbd0c7de9	-0.034299765
226	0xbd170f15	-0.036879618
227	0xbda23fde	-0.07922338
228	0xbd3d108e	-0.046158366
229	0x3d3e54d8	0.046467632
230	0xbe0acd87	-0.13554965
231	0xbd23d663	-0.039999377
232	0x3d3f4931	0.04670066
233	0xbd5d2773	-0.0539927
234	0x3d8f7dc6	0.07006411
235	0x3dd07d76	0.1018018
236	0x3e0a201c	0.13488811
237	0x3bff1304	0.0077842493
238	0x3d866e7c	0.06564042
239	0x3bbde402	0.005795003
240	0xbd41c494	-0.047306612
241	0xbd77049c	-0.06030713
242	0xbd6956a9	-0.05696741
243	0x3df06e27	0.1173976
244	0x3da4e481	0.08051396
245	0xbd51c910	-0.05121714
246	0x3e0132eb	0.1261708
247	0x3d4a8614	0.049444273
248	0x3db48415	0.08814255
249	0xbdce31a3	-0.10068061
250	0x3b94c2ba	0.004539815
251	0xbd5d8985	-0.054086227
252	0x3d525235	0.05134793
253	0x3d45c471	0.048283044
254	0xbb73d44a	-0.0037205392
255	0xbda190d4	-0.07888952

conv3.bias f4 [16]
0	0x3d6f1a72	0.05837483
1	0xbda1a4f0	-0.078927875
2	0xbd93fb27	-0.07225638
3	0xbceb0cc3	-0.028692609
4	0xbdd60e0b	-0.10451897
5	0xbdc161b9	-0.09442467
6	0x3d43c5b2	0.04779596
7	0xbd89539f	-0.067054026
8	0x3d22889f	0.039681073
9	0x3ce165f1	0.02751443
10	0xbc71a6c9	-0.014749237
11	0xbda6fa69	-0.08153231
12	0xbce4a96e	-0.027912822
13	0xbc7359c6	-0.014852947
14	0xbcfe7004	-0.031059273
15	0x3d30a4a2	0.043125756

bn3.weight f4 [16]
0	0x3f768c4b	0.9630782
1	0x3f827fd4	1.019526
2	0x3f72af03	0.94798297
3	0x3f770738	0.9649539
4	0x3f7fc594	0.99910855
5	0x3f7ea681	0.99472815
6	0x3f7c78fa	0.98622096
7	0x3f8348a7	1.0256547
8	0x3f84d7ac	1.0378318
9	0x3f8837a9	1.0641986
10	0x3f7df8d8	0.9920783
11	0x3f8b98a9	1.0905963
12	0x3f7539ec	0.95791507
13	0x3f6bc3df	0.9209575
14	0x3f7d3c1b	0.9891984
15	0x3f84479c	1.0334353

bn3.bias f4 [16]
0	0x3d4b2adb	0.049601417
1	0x3c7c0163	0.01538119
2	0x3c99cb4e	0.018773701
3	0x3cb53a52	0.022122536
4	0x3d372f9e	0.044723146
5	0x3d61b24b	0.055101674
6	0x3cbc4134	0.02298031
7	0x3d5adff6	0.053436242
8	0x3dc444c8	0.095834315
9	0x3d3d34bf	0.04619288
10	0x3d3b73e8	0.045764834
11	0x3d695cde	0.05697333
12	0x3c1b30b3	0.00947206
13	0x3d7c2549	0.061558995
14	0xbc4a9789	-0.01236523
15	0x3d3c9cca	0.046047963

bn3.running_mean f4 [16]
0	0x3f7bfaf0	0.98429775
1	0x3ec509ab	0.3848394
2	0x3f295bb8	0.66155577
3	0x3ecc83ca	0.39944297
4	0x3f334bbd	0.7003744
5	0x3ec8fcd1	0.39255384
6	0x3f359af6	0.70939577
7	0x3ee6b931	0.45063165
8	0x3f3f35f5	0.74691707
9	0x3ee7f233	0.4530197
10	0x3f0854ba	0.5325428
11	0x3f3eb6d9	0.74497753
12	0x3f03ac58	0.5143485
13	0x3ecb0aa4	0.39656556
14	0x3f24c913	0.64369315
15	0x3f3d376c	0.7391269

bn3.running_var f4 [16]
0	0x40384695	2.879308
1	0x3fa1b805	1.2634283
2	0x3fdcd153	1.7251381
3	0x3f5771e9	0.8415819
4	0x40397a24	2.8980799
5	0x3f4d0eb6	0.8010057
6	0x3f871672	1.0553725
7	0x3fb2e216	1.3975246
8	0x3fc921db	1.5713457
9	0x3fd71f71	1.680647
10	0x3fa60f89	1.2973491
11	0x3f9bcae3	1.2171291
12	0x3f9f43f2	1.244261
13	0x3f539c17	0.8266005
14	0x3f409830	0.7523222
15	0x401afcc3	2.4216774

conv4.weight f4 [16, 16, 3, 3]
0	0x3d0711c8	0.032975942
1	0x3cd76f29	0.026298122
2	0xbcb735da	-0.022364546
3	0x3d9c52ea	0.07633002
4	0x3cab437b	0.0209062
5	0x3d89457e	0.06702708
6	0x3caa447f	0.020784615
7	0xbd7ce573	-0.061742257
8	0x3dd0d5c6	0.10197024
9	0x3c736706	0.014856106
10	0xbbbaea38	-0.0057041906
11	0xbd172fa2	-0.03691066
12	0x3df3b585	0.118998565
13	0x3d8e082d	0.06935153
14	0x3e11a8ec	0.14224595
15	0x3e2d6bd7	0.16935669
16	0xbcec445a	-0.028841186
17	0x3d9d3520	0.076761484
18	0xbd031bcd	-0.032008935
19	0xbd9bcead	-0.0760778
20	0xbca3a76e	-0.019977298
21	0xbd888116	-0.06665246
22	0xbe039887	-0.12851153
23	0xbdbf120d	-0.09329615
24	0xbdfef0be	-0.12448262
25	0xbda30f3f	-0.07961892
26	0xbe24531a	-0.16047326
27	0xbceaf934	-0.028683282
28	0xbc7c6c05	-0.015406613
29	0xbcc421c6	-0.023941886
30	0x3dc264fe	0.09491919
31	0xbb94db59	-0.00454275
32	0x3e02f000	0.12786865
33	0x3daf1ab6	0.085500166
34	0x3d3a3765	0.045462985
35	0xbc43b57a	-0.011945123
36	0x3d9e6312	0.0773374
37	0x3cf80973	0.030277943
38	0x3d92cd30	0.07168043
39	0x3d34e5d5	0.044164497
40	0x3d9d430a	0.07678802
41	0x3e0809a5	0.13284929
42	0x3c1ce90c	0.009577047
43	0x3daa4d34	0.083155066
44	0xbc918a90	-0.017766267
45	0xbc0d8b02	-0.008639099
46	0xbd1733a5	-0.036914486
47	0xbc1c3e06	-0.009536272
48	0x3dc298d7	0.09501808
49	0x3d905a78	0.070485055
50	0xbd46b56a	-0.048512854
51	0xbc42ae2e	-0.011882348
52	0xbd0f106e	-0.034927778
53	0xbd08ef45	-0.03343131
54	0xbdad2aa2	-0.08455397
55	0xbde0157e	-0.10941599
56	0xbdbacec2	-0.09121467
57	0x3cdbf788	0.02685143
58	0xbc2bfe1e	-0.010497598
59	0xbc83bc13	-0.016080892
60	0xbe0191b9	-0.12653245
61	0x3c00dca5	0.007865106
62	0x3d505ebb	0.050871592
63	0xbdb30dbe	-0.087428555
64	0xbc086efa	-0.00832724
65	0x3d931f54	0.0718371
66	0xbd2921a1	-0.041291837
67	0xbd9a152d	-0.0752357
68	0x3d800993	0.06251826
69	0x3b9d1072	0.00479322
70	0xbd00839c	-0.031375512
71	0xbe4d22b8	-0.20032775
72	0x3c4bb846	0.012434071
73	0xbdfa4d03	-0.1222172
74	0xbd6f85c1	-0.058477167
75	0x3cf07cac	0.029356323
76	0x3c410970	0.011782035
77	0x3e3bb240	0.18329716
78	0xbcd7e0f1	-0.026352378
79	0xbcbfacb5	-0.023397783
80	0x3e28073b	0.16409008
81	0xbdb041d6	-0.08606307
82	0x3d95bf1c	0.07311842
83	0x3de6acaa	0.11263402
84	0xbe0373e1	-0.12837173
85	0xbe08045f	-0.13282917
86	0x3cf367a1	0.0297125
87	0xbc079ec1	-0.008277596
88	0x3cfc3bda	0.030790258
89	0x3c0e875b	0.008699263
90	0xbcf6e2b3	-0.030137395
91	0x3d11ed9f	0.035627004
92	0x3e55049b	0.20802538
93	0xbd249020	-0.04017651
94	0xbc416fe8	-0.011806466
95	0xbc657405	-0.014004712
96	0x3cfb6e54	0.030692257
97	0xbccfda96	-0.025372785
98	0xbd27f52f	-0.04100531
99	0xbd081754	-0.033225372
100	0xbd3aa3b0	-0.04556626
101	0x3d8476f8	0.06468004
102	0xbd77186e	-0.060326032
103	0xbcab1f71	-0.020889016
104	0xbd5eec08	-0.054424316
105	0x3d36d496	0.04463633
106	0x3c8eb447	0.017419947
107	0x3df808ff	0.12111091
108	0xbdd33938	-0.10313648
109	0xbb7f4a87	-0.0038954334
110	0xbceed897	-0.029156012
111	0xbd9bffee	-0.07617174
112	0x3d33fb0e	0.043940596
113	0x3d700f12	0.058608122
114	0x3cae2fbf	0.021263001
115	0x3ca9bf3e	0.020721074
116	0x3dd1f336	0.10251467
117	0xbdc4e820	-0.09614587
118	0xbd8fdda9	-0.070247
119	0xbc94487b	-0.018100968
120	0xbdc29ce1	-0.095025785
121	0xbdb77c6e	-0.0895928
122	0x3a5492c8	0.00081090303
123	0xbd801985	-0.062548675
124	0x3d910d22	0.07082583
125	0xbc654d94	-0.013995547
126	0x3d98e2d7	0.07465141
127	0x3ce4bef0	0.027923077
128	0xbdedff60	-0.116209745
129	0x3db4ee79	0.088345475
130	0x3d4af8ce	0.049553685
131	0xbce0d685	-0.02744604
132	0x3c47cc3e	0.012194691
133	0xbc846952	-0.016163502
134	0x3d98f797	0.07469099
135	0xbcc50385	-0.02404953
136	0xbe01eb90	-0.12687516
137	0x3c8674a6	0.016413044
138	0x3cd23bb4	0.025663234
139	0xbdd01624	-0.10160473
140	0xbe050f93	-0.12994222
141	0xbc5687ca	-0.013093898
142	0xbd5d9b38	-0.054103106
143	0xbdf20a30	-0.11818349
144	0xbd11a83b	-0.035560828
145	0xbdbb1031	-0.09133948
146	0xbd8adff2	-0.067809954
147	0xbc94a073	-0.018142914
148	0xbdb0242c	-0.08600649
149	0xbd3fe00b	-0.046844523
150	0xbd296845	-0.041359205
151	0xbdde86cd	-0.10865555
152	0x3ba1a32f	0.004932783
153	0x3c367d24	0.011138234
154	0xbd2cbef3	-0.04217429
155	0xbd1b33a1	-0.037891034
156	0xbd50da4a	-0.050989427
157	0xbd7eb560	-0.06218469
158	0xbd437c46	-0.04772594
159	0x3cf223e1	0.029558124
160	0x3baa9cdd	0.005206688
161	0x3c289c57	0.010291181
162	0xbd991708	-0.07475096
163	0x3d775fe9	0.0603942
164	0x3bbc8602	0.0057532797
165	0xbd497ee0	-0.049193263
166	0xbd4f178d	-0.05055957
167	0x3bc6134e	0.0060447818
168	0xbd435f18	-0.04769811
169	0xbdcbfc85	-0.09960274
170	0xbd760ed2	-0.060072728
171	0x3c521644	0.012822691
172	0x3ca0eb6b	0.019643506
173	0xbd1b35d6	-0.03789314
174	0xbd9dfb50	-0.0771395
175	0x3c2e8ef7	0.010654203
176	0x3ccc8146	0.024963986
177	0x3d96b4b4	0.07358685
178	0xbd2e6a06	-0.04258158
179	0x3c635d83	0.013877275
180	0x3dc86d35	0.097864546
181	0xbdbd5d4a	-0.09246309
182	0xbd170faa	-0.036880173
183	0xbc0f8fd7	-0.008762321
184	0x3d66a65c	0.056310996
185	0xbd4862cc	-0.048922345
186	0x3d2c1fb4	0.042022422
187	0xbbb3d280	-0.00548774
188	0x3d75d973	0.06002183
189	0x3da348bb	0.079728566
190	0x3c75a9a5	0.01499406
191	0xbdb0f09a	-0.08639641
192	0x3dbb99cf	0.09160196
193	0x3d539624	0.051656857
194	0x3bfcc858	0.0077143125
195	0x3d6ccb01	0.057810787
196	0xbd8cec08	-0.06880957
197	0xbb811694	-0.003939459
198	0xbe101faf	-0.14074586
199	0xbd3dd0fa	-0.046341874
200	0xbd09362c	-0.033498928
201	0x3d9c0f74	0.07620135
202	0xbc77c29c	-0.015122082
203	0xbd9a7a36	-0.07542841
204	0x3e6ad7b4	0.22933847
205	0x3e4e8d22	0.20171025
206	0xbbca4804	-0.0061731357
207	0xba842dac	-0.0010084412
208	0x3d763b77	0.060115304
209	0x3dae780a	0.085189894
210	0xbd10244d	-0.03519087
211	0xbc205045	-0.009784763
212	0x3df7d177	0.12100499
213	0xbd545427	-0.051838066
214	0xbe06d248	-0.13166153
215	0xbbceb202	-0.0063078413
216	0xbc911c73	-0.017713761
217	0xbdeb1ba2	-0.1147988
218	0xbbe31e12	-0.006931075
219	0xbd4f4a25	-0.05060782
220	0xbd88fed0	-0.066892266
221	0xbd80c16f	-0.062868945
222	0x3d8c9643	0.06864598
223	0x3d9fbb36	0.077993795
224	0xbd26a4ec	-0.040684626
225	0x3db60ff6	0.08889763
226	0x3b109a35	0.002206457
227	0x3e13bd38	0.1442765
228	0xbcbeae97	-0.02327661
229	0x3d4785f4	0.048711732
230	0x3e258397	0.16163479
231	0xbdc7b056	-0.0975043
232	0x3aa2bd82	0.0012416097
233	0xbdd80d2e	-0.10549389
234	0xbdd2c7c4	-0.102920085
235	0xbe22fcc2	-0.15916732
236	0xbe3a9002	-0.18218997
237	0xbd38ecb1	-0.0451476
238	0xbd763616	-0.060110174
239	0xbb0690b9	-0.0020533039
240	0x3daaa295	0.08331791
241	0xbdd76810	-0.10517895
242	0xbd72f12d	-0.059312034
243	0x3d5ca1b1	0.05386514
244	0x3d2f726a	0.042833723
245	0x3d0ee50a	0.034886397
246	0xbd84da14	-0.064869076
247	0x3da0e233	0.07855644
248	0x3e2bf753	0.16793565
249	0xbdea5e98	-0.114438236
250	0xbe1e3251	-0.15448882
251	0xbdab9dc8	-0.08379704
252	0xbd0ab611	-0.03386504
253	0x3d6d5ffd	0.05795287
254	0xba99db36	-0.0011738304
255	0x3c00e858	0.007867895

conv4.bias f4 [16]
0	0x3cfb1ee3	0.030654376
1	0xbe02d223	-0.12775473
2	0x3e0c3273	0.1369112
3	0x3c4d2547	0.012521095
4	0xbdbd911f	-0.09256195
5	0xbdefad0a	-0.117029265
6	0x3d0d1c92	0.034451075
7	0x3c9a82c3	0.01886118
8	0x3c8ea2ce	0.017411616
9	0xbd2f8599	-0.042852018
10	0xbc14a288	-0.009071954
11	0xbce587a5	-0.028018782
12	0x3c0b3814	0.008497257
13	0xbd46798d	-0.048455764
14	0xbcb47ec0	-0.022033095
15	0xbd449390	-0.04799229

bn4.weight f4 [16]
0	0x3f7bcbf1	0.98358065
1	0x3f834762	1.0256159
2	0x3f80009e	1.0000188
3	0x3f7aec32	0.98016655
4	0x3f7363d5	0.95074207
5	0x3f814cbc	1.0101542
6	0x3f82c882	1.021744
7	0x3f7d3141	0.9890328
8	0x3f77bda5	0.9677375
9	0x3f7ea850	0.99475574
10	0x3f801ceb	1.0008825
11	0x3f8220a3	1.016621
12	0x3f8153b9	1.0103675
13	0x3f765528	0.9622369
14	0x3f814804	1.0100102
15	0x3f7ed59a	0.9954468

bn4.bias f4 [16]
0	0xbdbd2125	-0.092348374
1	0x3c08a675	0.008340468
2	0xbe1b9bda	-0.15196171
3	0xbd93849b	-0.07203027
4	0xbe665333	-0.22492675
5	0xbe04a729	-0.12954392
6	0xbe04f739	-0.12984933
7	0xbe072754	-0.13198596
8	0xbbdc5028	-0.0067234226
9	0xbd01a45b	-0.031650882
10	0xbd827924	-0.06370762
11	0xbd738eeb	-0.05946247
12	0xbd78d3e4	-0.06074895
13	0xbd5732b0	-0.052538574
14	0xbd5c21ea	-0.05374328
15	0xbde56ee6	-0.11202793

bn4.running_mean f4 [16]
0	0x3f0bf685	0.54673034
1	0x3ed73bf3	0.42037925
2	0x3efd3444	0.49453938
3	0x3ed01cef	0.40647075
4	0x3ea7356d	0.32657948
5	0x3eada284	0.33913052
6	0x3eb8bcf7	0.3608167
7	0x3eb1a9fd	0.34700003
8	0x3eb46e00	0.35240173
9	0x3e9e4382	0.3091088
10	0x3ee9c1ea	0.45655757
11	0x3eebb980	0.46039963
12	0x3eb0d28a	0.3453563
13	0x3eb05f6a	0.34447795
14	0x3eb4014a	0.35157233
15	0x3eb8fe4b	0.3613151

bn4.running_var f4 [16]
0	0x3f219454	0.63116956
1	0x3edd12ca	0.43178397
2	0x3f0d2c0d	0.5514534
3	0x3ef61ddb	0.48069653
4	0x3e938de9	0.28819206
5	0x3ec17635	0.37785497
6	0x3ed17499	0.4090927
7	0x3e827e28	0.25486875
8	0x3e9f11e5	0.3106834
9	0x3eb93c10	0.36178637
10	0x3eac322a	0.33632022
11	0x3f10b7d6	0.5653051
12	0x3eabbf87	0.3354456
13	0x3ed94b29	0.42440155
14	0x3e95672b	0.29180273
15	0x3ee58579	0.44828394

transition2.weight f4 [8, 16, 1, 1]
0	0xbe19b29a	-0.15009537
1	0x3d795137	0.060868468
2	0xbdf075eb	-0.11741241
3	0xbe10c916	-0.14139208
4	0x3e3487ad	0.17629881
5	0x3de81789	0.11332614
6	0x3e00a123	0.12561469
7	0xbdeb0f14	-0.11477485
8	0xbdb22107	-0.08697706
9	0x3dce357f	0.10068797
10	0xbe1a2ba3	-0.15055709
11	0x3e3323ac	0.17494076
12	0xbe7e897f	-0.24857138
13	0x3e8d906e	0.27649254
14	0xbec6daaa	-0.38838702
15	0xbe615905	-0.22006615
16	0xbafd8e3b	-0.0019344756
17	0x3e44bd47	0.19212829
18	0xbd9745aa	-0.07386334
19	0xbdf3d389	-0.119055815
20	0x3ebb437d	0.36574927
21	0x3e0b4445	0.13600262
22	0xbe1ebde6	-0.15502128
23	0xbd84d06c	-0.06485066
24	0x3cf44dc7	0.029822243
25	0xbe517a03	-0.204567
26	0xbe6c4318	-0.23072469
27	0x3e4cd77b	0.20004074
28	0x3ec6292a	0.3870328
29	0xbdf7faa3	-0.12108352
30	0xbe8380d1	-0.25684217
31	0x3e1a9fd6	0.15100035
32	0x3e7a9c64	0.24473721
33	0x3e4ac005	0.19799812
34	0x3e47aff7	0.19500719
35	0x3dcf626a	0.10126193
36	0x3c011dd1	0.007880644
37	0x3ec8a7e0	0.39190578
38	0x3c6bb3ae	0.014386101
39	0x3d308e00	0.04310417
40	0x3d35bfc4	0.044372335
41	0x3e869a89	0.26289776
42	0xbc4a4adc	-0.012346949
43	0x3e4bfc43	0.19920449
44	0xbdda991b	-0.10673734
45	0xbb5c3fa5	-0.003360727
46	0xbdd4db7f	-0.10393428
47	0x3e6adcba	0.22935763
48	0x3e4227da	0.18960515
49	0xbe9a2ae0	-0.30110836
50	0x3e5d77b6	0.21627697
51	0xbe402513	-0.18764143
52	0x3e5650ae	0.20929214
53	0xbc6c3337	-0.014416507
54	0xbe46ae19	-0.1940235
55	0xbe79900c	-0.24371356
56	0x3c8b96e1	0.017039718
57	0x3d94959d	0.07255099
58	0x3e4d0c6b	0.20024268
59	0xbe900100	-0.28125763
60	0x3cb9e399	0.022691535
61	0x3e4e4e94	0.20147163
62	0x3d40482c	0.04694383
63	0x3e825d9a	0.25462037
64	0xbe3660f5	-0.17810424
65	0xbeaa1bef	-0.33224437
66	0xbe1ce41c	-0.15321392
67	0x3d99208f	0.07476913
68	0x3df97072	0.1217965
69	0xbd20707e	-0.03916978
70	0x3db2e619	0.08735294
71	0x3d48ffe1	0.04907215
72	0xbe42529c	-0.18976825
73	0x3e1f1253	0.15534334
74	0xbe8ec4ca	-0.27884513
75	0xbe4061b6	-0.18787274
76	0xbd7d6f3c	-0.06187366
77	0x3a3c994d	0.00071944745
78	0x3d5452b0	0.05183667
79	0x3ea3efc2	0.32018858
80	0xbe85eb27	-0.2615597
81	0x3dc1db37	0.0946564
82	0xbebe2d43	-0.37143907
83	0xbd78ee59	-0.06077418
84	0x3d168532	0.03674812
85	0xbb6399f8	-0.0034729224
86	0xbe0d1e0d	-0.13780995
87	0xbe1d2984	-0.15347868
88	0x3dcd9c59	0.100395866
89	0x3dce7959	0.10081739
90	0xbe61de14	-0.22057372
91	0x3e8f9ae3	0.28047857
92	0xbe260dde	-0.16216227
93	0xbca74204	-0.02041722
94	0x3e637b0f	0.22214912
95	0x3e0d0c83	0.13774304
96	0xbe4d253b	-0.20033734
97	0xbe6e556d	-0.23274775
98	0x3dbc6afe	0.09200095
99	0xbdd29ecb	-0.102841936
100	0x3e186447	0.14882003
101	0xbdab823b	-0.08374449
102	0x3ddfa3fb	0.10919949
103	0x3e9ae623	0.30253705
104	0x3eab35f3	0.33439597
105	0x3e40a0ca	0.18811336
106	0xbe3abc5e	-0.18235919
107	0x3d9d5e72	0.0768403
108	0x3d81b6db	0.06333705
109	0xbe8acfaf	-0.27111575
110	0x3c8ae358	0.01695411
111	0xbd5c195a	-0.053735115
112	0x3d1da4f8	0.038487405
113	0x3c2e3912	0.010633724
114	0x3e07efb0	0.13275027
115	0xbeae1de3	-0.34007177
116	0xbe6f430f	-0.23365425
117	0xbe4bdab6	-0.1990765
118	0xbed20223	-0.41017255
119	0xbda13204	-0.07870868
120	0x3de880e9	0.11352713
121	0x3e91390d	0.2836384
122	0x3d5b43a4	0.053531304
123	0x3ce569ca	0.028004546
124	0xbe10ddb3	-0.14147072
125	0x3d0a3167	0.03373852
126	0xbbe8a4f6	-0.007099743
127	0xbe220b1b	-0.15824549

transition2.bias f4 [8]
0	0xbd0afd02	-0.033932693
1	0x3e873298	0.26405787
2	0x3dcc9749	0.09989793
3	0x3da65c64	0.08123091
4	0xbdabb757	-0.08384579
5	0x3e42ee7d	0.19036289
6	0x3e82ef5d	0.25573245
7	0x3dba3e8a	0.0909396
